Router/Sales_Prediction/Saved_Models/NN Model/NN_Category_model.pth (torch, 66744 bytes, 7 tensors)

fc1.weight f4 [128, 42]
000000 37 92 f0 3d 1d 7b 89 be 5d 95 2d be 81 22 c6 be
       0.11746638 -0.2685174 -0.16951509 -0.386982
000010 2c 68 18 3e 6c 6f ab 3e 53 e8 6f be 77 10 9f 3e
       0.14883488 0.33483446 -0.23428468 0.3106725
000020 bf b8 85 be a9 88 ae be 63 40 a8 be 3f b8 a4 be
       -0.26117513 -0.34088638 -0.32861623 -0.3217182
000030 b4 2b 8f be 37 2b 55 be aa f3 58 be 39 78 5e be
       -0.2796303 -0.20817266 -0.211867 -0.21725549
000040 d9 93 8c be 25 58 8f be 6d fa 5b be 66 cb 2b be
       -0.2745655 -0.27996936 -0.21482249 -0.16776809
000050 99 d8 8b be aa 7c 5c be 32 54 44 be c8 de 37 be
       -0.27313688 -0.2153193 -0.19172743 -0.17956078
000060 fb bb 4c be 55 20 41 be 50 7b 63 be 04 b3 28 be
       -0.19993584 -0.1885999 -0.22215009 -0.16474539
000070 7a cf 43 be 2d 08 38 be 91 05 1a be d6 e7 e2 bd
       -0.19122115 -0.17971869 -0.15041186 -0.110793754
000080 a6 8e 02 be 40 21 19 be 09 35 98 bd c1 f3 25 be
       -0.12749729 -0.1495409 -0.07431991 -0.16206266
000090 06 92 03 be 32 9f 16 be 31 05 c8 bd b7 8b 9f bd
       -0.12848672 -0.14709166 -0.09766615 -0.0779032
0000a0 97 fd c7 bd e5 a4 c3 bd c3 35 0a 3e 78 1e 96 3d
       -0.09765165 -0.095529355 0.13497071 0.0733003
0000b0 22 bb 26 be 39 20 c2 be 5c 79 82 bd 56 fe 5e 3e
       -0.16282323 -0.3791521 -0.06370804 0.21776709
0000c0 89 f4 3c be f5 29 b1 3d eb 25 4a be b3 ac 8c be
       -0.18452658 0.08650581 -0.19741027 -0.2747551
0000d0 6a 36 bc be 12 b8 34 be dc 3d 63 be b0 52 48 be
       -0.36760265 -0.17648342 -0.22191566 -0.19562793
0000e0 f3 f5 8f bd 03 c1 47 be 67 6c 41 be dc af e1 bd
       -0.07029333 -0.19507222 -0.18889008 -0.11019871
0000f0 5d d6 3e be 04 3a 2b be 72 9c 60 be 30 87 b1 bd
       -0.1863646 -0.1672135 -0.21934679 -0.08668363
000100 e7 ff 77 bd c1 c3 09 be f7 f7 3c bd e3 b2 2c be
       -0.060546782 -0.1345358 -0.046134915 -0.16865115
000110 be 25 19 be 57 1c 64 bd e1 fe 2d be bb 44 13 be
       -0.14955804 -0.05569109 -0.1699176 -0.14381687
000120 4a a9 8a 3a 7d f6 07 be e0 e3 9f bd 48 34 f1 bd
       0.0010579017 -0.13277622 -0.078071356 -0.1177755
000130 a4 de 51 bd 16 99 b0 bd 08 df d4 bc 75 ee 06 be
       -0.051237717 -0.08622949 -0.025985256 -0.13176902
000140 19 5b cf bd f3 99 e4 bc bd de 8e bd 9d 9f 9a 3c
       -0.101247974 -0.02790544 -0.06976078 0.018874938
000150 57 ee 26 3d d1 f8 5d 3e 75 0f f4 bd 9c c9 6e be
       0.040754642 0.21676947 -0.11917011 -0.23319095
000160 a9 29 33 be 0d 4f 89 3e b9 2e 69 be 6e 72 76 3d
       -0.17496361 0.26818123 -0.2277173 0.060167722
000170 7a 0c 13 be 79 14 0d be 7e e0 79 be a7 dd 2f be
       -0.14360228 -0.13777341 -0.24402043 -0.17174397
000180 e5 77 bd bd 99 db 51 be 0d b2 0d be 43 55 55 be
       -0.09251384 -0.20493926 -0.13837452 -0.20833306
000190 5b f3 ad bd ae 0c 47 be 75 41 0b be 7b 50 b7 bd
       -0.08493682 -0.1943843 -0.13599189 -0.08950897
0001a0 d8 ed 84 be 5c 18 54 be 60 3f 48 be 2d 8d 49 bd
       -0.2596271 -0.20712417 -0.19555426 -0.0492069
0001b0 5c f3 4f be 5c a5 e0 bd 25 7a 24 be 4e 3c 0a be
       -0.20307678 -0.1096904 -0.1606222 -0.13499567
0001c0 62 a1 54 be f4 4d 3e be 32 67 cf bd ac 90 07 bd
       -0.20764688 -0.18584424 -0.10127105 -0.033096954
0001d0 b4 d6 1c bd bf 7b 28 be e2 a1 bd bd 2c c1 2a be
       -0.038290694 -0.16453455 -0.09259392 -0.16675252
0001e0 37 b9 b5 bd 0e 80 23 be 1b ef 06 be 5a 90 bd bd
       -0.088732176 -0.15966818 -0.13177149 -0.092560485
0001f0 93 c1 c1 bd 4c 09 7d bd ee 78 15 3e e1 76 1e be
       -0.094607495 -0.061776444 0.14596912 -0.15475036
000200 2f 55 f0 bd 31 2b 0f bf 63 6e 30 3e 92 84 c7 3e
       -0.117349975 -0.5592528 0.17229609 0.3896833
000210 9a 2a 6f be 2e 9d af 3e 8b 2d 7e be 24 b7 ab be
       -0.23356095 0.34299606 -0.24822061 -0.33538163
000220 e6 10 bb be c9 9f 82 be 2f 6f 8d be 91 b0 f5 bd
       -0.3653633 -0.2551253 -0.2762389 -0.11996568
000230 70 be 66 be 94 2b 5e be 37 60 56 be 87 a1 92 be
       -0.22533584 -0.21696311 -0.2093514 -0.2863886
000240 54 6f 55 be a1 bd 2b be 72 ae 84 be 0e be 37 be
       -0.2084325 -0.16771556 -0.2591434 -0.17943594
000250 fe 63 9d bd 57 49 c6 bd 71 23 3d be 00 14 40 be
       -0.076850876 -0.09681957 -0.18470551 -0.1875763
000260 6f ad 52 be d4 c2 35 be 88 df 3d be e2 45 92 bd
       -0.20573972 -0.17750102 -0.18542302 -0.07142235
000270 ff 25 13 be 74 66 96 bd 60 b0 02 be 55 6e 0b be
       -0.14369963 -0.0734376 -0.12762594 -0.13616307
000280 a2 99 ad bd f4 25 2a be c8 d7 0d be 9b 28 d4 bd
       -0.08476569 -0.1661604 -0.13851845 -0.103593074
000290 37 5b 06 be f7 d6 71 bd 94 e9 d4 bd 67 b2 e9 bd
       -0.13120733 -0.059042897 -0.10396114 -0.11410981
0002a0 d2 5d 82 3e fc 60 c6 bd 88 c6 81 be cf d5 fe be
       0.25462204 -0.09686467 -0.2534678 -0.49772498
0002b0 bd b1 05 3e 4b 25 2d 3e 6f 03 19 be 04 4e a3 3e
       0.13056083 0.16908757 -0.14942716 0.3189546
0002c0 88 f0 09 be b1 9a 1b be 4f 3a 60 be 21 8b 2b be
       -0.13470662 -0.15195729 -0.21897243 -0.16752292
0002d0 07 d2 f0 bd 47 cd cb bd 45 40 d3 bd a9 4c d1 bd
       -0.117588095 -0.09951263 -0.10314993 -0.102197
0002e0 da 09 25 be 57 0b ef bd 82 a5 d6 bd f0 2c 6f bd
       -0.1611704 -0.11672085 -0.10480787 -0.058392465
0002f0 9c 84 25 be 85 12 e0 bd b9 a3 95 bd 06 fa 84 bd
       -0.16163868 -0.10941032 -0.07306618 -0.06493001
000300 00 11 bc bd bc 4b b1 bd 35 2c de bd 64 98 8f bd
       -0.0918293 -0.08657023 -0.108482756 -0.07011488
000310 08 41 cd bd 66 15 ad bd d3 65 5b bd ab 36 04 bd
       -0.10022169 -0.08451347 -0.053563904 -0.032278698
000320 cf 17 90 bd 09 63 a6 bd aa ed a4 bb da 8d bf bd
       -0.07035791 -0.08124358 -0.0050332146 -0.09353228
000330 82 d9 83 bd f7 92 89 bd 27 eb 88 bd 44 6c 0a bd
       -0.06437971 -0.067174844 -0.06685477 -0.033794656
000340 44 b7 43 bd e2 d2 5a bd 9e f9 bd 3d b5 0c 88 be
       -0.047782198 -0.05342377 0.09276126 -0.26572195
000350 cd 74 01 be 03 73 b9 be 2b 76 03 3e 59 39 9a 3e
       -0.12642212 -0.3622056 0.12838046 0.30121878
000360 69 7f 58 be fc 34 93 3e df d3 7f be 92 6b 8f be
       -0.21142353 0.2875136 -0.24983166 -0.28011757
000370 a6 dc bd be f2 66 96 be 63 aa 75 be bb a2 34 be
       -0.37082404 -0.29375416 -0.23990779 -0.17640202
000380 de 15 4f be c3 e1 50 be be 76 83 be fd 9f 8a be
       -0.20223185 -0.20398621 -0.2567653 -0.27075186
000390 33 21 4d be cb 17 ea bd 20 91 78 be 69 2b 45 be
       -0.20032196 -0.114303194 -0.24274111 -0.19254841
0003a0 11 67 35 be 7a a8 2a be 23 7d 38 be 41 f4 3b be
       -0.17715098 -0.16665831 -0.18016486 -0.18354894
0003b0 78 87 53 be 63 ea 36 be 55 6f 20 be f0 c7 30 be
       -0.20657146 -0.17862849 -0.1566747 -0.1726377
0003c0 ad 73 10 be 90 d8 e9 bd 01 b6 f8 bd f1 0e 12 be
       -0.14106627 -0.11418259 -0.121440895 -0.14263512
0003d0 fa 66 74 bd 0f 2e 1f be f4 9a e9 bd d5 ea 11 be
       -0.05966852 -0.15544914 -0.11406508 -0.14249738
0003e0 dc 5b e6 bd 85 dc ad bd 93 0d c5 bd a0 f4 cd bd
       -0.112479895 -0.084893264 -0.0962173 -0.10056424
0003f0 14 34 8a 3e 6b 81 0a 3d c2 ac 90 bd b2 f2 95 be
       0.26992857 0.03381483 -0.07064201 -0.29286724

fc1.bias f4 [128]
000000 1f c6 99 be 3a 27 8a bd 6b d1 12 be 3a 19 8c be
       -0.30033967 -0.06745763 -0.14337699 -0.27362996
000010 d8 53 7d be 2c cb 81 be 73 d8 bc bd 50 91 98 be
       -0.24739015 -0.2535032 -0.09220972 -0.29798365
000020 76 de 20 be 08 03 2e be 80 10 4a be 25 76 fd 3e
       -0.15709862 -0.16993344 -0.19732857 0.495042
000030 dc 37 8d be 2d a0 35 be 34 fb a8 3e d5 1c ba be
       -0.2758168 -0.17736883 0.33004153 -0.36350122
000040 e1 0a 1e be ef ce 5d bd 01 d7 a0 bd 0b 69 d0 bd
       -0.15433837 -0.054152425 -0.07853509 -0.10176285
000050 57 cd 9c be 0c 25 15 3f 08 59 55 be 7e 04 4b bd
       -0.30625412 0.58259654 -0.20834744 -0.04956483
000060 0d f9 82 be 56 90 79 be 61 de 1d be 7b c8 3f be
       -0.25580636 -0.24371466 -0.15416862 -0.18728821
000070 d5 8b 37 be 60 e4 60 be 1f dd c8 bd 70 dd 02 be
       -0.17924435 -0.21962118 -0.098078005 -0.12779784
000080 3d 82 9e be d5 52 47 be a9 83 c3 be 69 d3 23 be
       -0.3095874 -0.19465192 -0.38186386 -0.15998615
000090 63 0c a3 bd 7e f6 9d be 5a 02 70 be 89 8c a4 be
       -0.07961347 -0.3085212 -0.23438397 -0.3213847
0000a0 a1 2c 37 be c4 58 95 bd e8 df d1 bc e7 2a 84 be
       -0.17888118 -0.07292321 -0.025619462 -0.25813982
0000b0 22 55 70 be b1 60 89 bd 83 82 5c be f1 df 91 bd
       -0.23469976 -0.067078955 -0.21534161 -0.071227916
0000c0 f7 4b 74 3e a4 11 68 be 36 0a 88 be 8c f6 84 be
       0.23857103 -0.2266298 -0.2657029 -0.2596935
0000d0 1d fa c8 bd fe 1d c6 bd 06 01 81 be 18 82 33 be
       -0.0981333 -0.09673689 -0.25196093 -0.17530096
0000e0 09 0a 5d be 14 9f a3 be 64 86 4c be ba 38 bf bd
       -0.2158586 -0.31957304 -0.19973141 -0.093369916
0000f0 61 31 15 be 8b ca 8e be 41 e5 41 be 64 c2 61 be
       -0.14569618 -0.27888903 -0.1893511 -0.2204681
000100 fc 87 41 be 52 91 20 be ab bc e8 be d1 5e a1 be
       -0.1889953 -0.15680435 -0.45456442 -0.31517652
000110 d9 df 7a be 8d 98 9f bd a9 99 2c be 0c 95 20 3f
       -0.24499454 -0.077927686 -0.16855492 0.6272743
000120 b0 a8 b8 3d 37 dc 73 be f3 fc 9d be a5 47 b7 bd
       0.090165496 -0.23814474 -0.30857047 -0.08949212
000130 95 1e b3 be 71 97 5d be d6 d8 86 be c8 ad b0 be
       -0.3498427 -0.21639802 -0.26337308 -0.34507585
000140 6d 23 a2 be f5 a2 a2 be 3f bf b5 bd 1a 83 5c be
       -0.31667653 -0.3176495 -0.08874368 -0.21534386
000150 2f 9f 9d be e2 f8 08 be c5 3a 0b be 17 cc 8c be
       -0.3078551 -0.13376191 -0.13596638 -0.27499458
000160 26 07 38 be 02 ab 78 be b8 bb 8d be e2 9a ae bd
       -0.17971477 -0.24283984 -0.2768228 -0.08525635
000170 18 46 3e be f6 9a 9c be f9 de 95 be 47 32 06 be
       -0.18581426 -0.30586976 -0.29271677 -0.13105117
000180 87 86 ca 3e f8 46 bf be ee d9 55 be 08 98 95 bd
       0.3955576 -0.37358832 -0.20883915 -0.07304388
000190 b5 12 d3 bd bf c7 c9 bd d7 e2 84 be fb e1 06 be
       -0.103063025 -0.09852552 -0.25954315 -0.13172142
0001a0 7f 21 00 be 04 46 89 be fd f5 bb bd d5 5e 26 be
       -0.12512778 -0.2681123 -0.09177778 -0.16247113
0001b0 55 87 a1 be ed d6 86 be 4a 10 bc be a1 c9 b7 be
       -0.31548563 -0.2633585 -0.36731178 -0.35896018
0001c0 13 05 b5 bd 46 b8 d3 bd b8 e1 29 be 4e fd 86 be
       -0.088388585 -0.10337882 -0.16590011 -0.2636513
0001d0 83 a1 06 be 03 1a 80 be 08 0b 32 be da 72 8c be
       -0.1314755 -0.25019845 -0.1738702 -0.27431375
0001e0 c0 a9 8b be 22 90 26 be 9a 39 21 be 2e 45 42 be
       -0.27277946 -0.1626592 -0.1574463 -0.18971702
0001f0 5a 6f e9 bd 52 7b b4 3e 73 a1 88 be b1 34 f2 bc
       -0.11398192 0.35250336 -0.26685676 -0.02956614

fc2.weight f4 [64, 128]
000000 cc 43 bd 3e 86 64 84 3e 0c 07 5e 3e b7 46 bf 3e
       0.36965787 0.25857943 0.21682376 0.3735864
000010 ae 72 5e 3e c7 d5 7b 3e b8 b9 77 3e 2e 61 b9 3e
       0.21723434 0.24593268 0.2419194 0.36206955
000020 1c 87 8e 3e b0 0d 8e 3e 44 2d 67 3e 93 1c 3b bf
       0.27837455 0.27744818 0.22575861 -0.73090476
000030 cd 26 9c 3e 3e f7 b2 3e ef e9 c8 3d 2c 52 be 3e
       0.30498353 0.34954256 0.09810244 0.37172067
000040 a2 0c a2 3e d7 b8 70 3e 22 8b 95 3e 55 28 93 3e
       0.31650263 0.23508011 0.29207712 0.28741708
000050 06 ba b6 3e 83 87 0c c0 bb 9d 66 3e b1 4f 43 3e
       0.356888 -2.195771 0.22521107 0.19073369
000060 3b 72 75 3e 5a cb 95 3e a2 a8 4a 3e 22 03 97 3e
       0.23969357 0.29256707 0.19790891 0.29494578
000070 31 b1 a5 3e 10 ef 82 3e 58 e8 74 3e 73 53 1e 3e
       0.3236175 0.25573015 0.23916757 0.15461521
000080 ae 2a 98 3e 36 d6 99 3e 26 79 a5 3e 02 a5 48 3e
       0.29720062 0.30046242 0.3231899 0.19594195
000090 0c d2 9a 3e 3a 18 95 3e f4 72 b5 3e 61 c6 c2 3e
       0.30238378 0.29120046 0.35439265 0.38041976
0000a0 fe 98 bf 3e c3 74 47 3e 71 f5 8c 3e 26 81 b5 3e
       0.3742141 0.19478135 0.27531007 0.35450095
0000b0 97 e0 80 3e 5b 22 31 3e 33 0c 81 3e 9b 32 45 3e
       0.25171348 0.17298262 0.2520462 0.19257586
0000c0 78 72 34 bf d3 eb 4f 3e a4 93 b2 3e 56 4d 88 3e
       -0.70487165 0.20304804 0.34878266 0.26621503
0000d0 19 52 3c 3e 17 24 62 3e af 30 5c 3e 02 92 b5 3e
       0.18390693 0.2208408 0.21502946 0.35462958
0000e0 18 39 a0 3e 1f f4 a7 3e 5f 1e ad 3e 84 7d 78 3e
       0.3129356 0.32803437 0.33812234 0.2426663
0000f0 4e fc a9 3e 7e a0 a0 3e 2d d6 8c 3e 1e 2c 94 3e
       0.33200306 0.31372446 0.27507153 0.2893991
000100 c7 b4 2b 3e c7 c8 81 3e 3d d1 13 3f 76 ff b1 3e
       0.1676818 0.25348493 0.5774115 0.34765214
000110 05 a0 92 3e 1a db 90 3e d8 cf a1 3e 89 7a da bf
       0.2863771 0.2829216 0.31603885 -1.7068645
000120 a6 e7 46 bc 3b 40 a6 3e d3 86 ad 3e 7a 86 2c 3e
       -0.01214019 0.3247088 0.33891925 0.16848174
000130 fa 76 ca 3e b2 de 94 3e df 0f bc 3e c8 71 a9 3e
       0.39543897 0.29076153 0.3673086 0.3309462
000140 35 53 a9 3e ba d1 a0 3e fe af 5d 3e cc 9f 9a 3e
       0.33071294 0.3141001 0.21649167 0.3020004
000150 eb 92 92 3e 22 0f 67 3e e2 c5 73 3e b9 04 ac 3e
       0.28627715 0.22564366 0.23805955 0.33597353
000160 d4 28 48 3e 05 29 a2 3e 48 29 c4 3e 24 4e 72 3e
       0.19546825 0.3167192 0.38312745 0.23662621
000170 f9 9c ab 3e 8b 09 b4 3e 7a d1 8c 3e f0 85 4c 3e
       0.33518198 0.3516353 0.27503568 0.19972968
000180 f4 5f f6 3a ae 34 a9 3e 9b 4d 75 3e 22 5f 2f 3e
       0.0018796907 0.33048004 0.23955385 0.17126134
000190 d7 d3 6e 3e 28 58 58 3e a7 09 b1 3e 13 ca 50 3e
       0.23322998 0.21127379 0.34577677 0.20389585
0001a0 c4 cf 71 3e 3e 70 8a 3e a0 7b 2f 3e e1 a6 a2 3e
       0.23614413 0.2703876 0.17137003 0.31767944
0001b0 73 5d b9 3e da c7 88 3e 35 a9 bc 3e 01 f1 9f 3e
       0.3620411 0.26714975 0.36847845 0.3123856
0001c0 7a fd a7 3e ea f8 68 3e 4d 3f 51 3e 17 6f 85 3e
       0.32810575 0.22751203 0.20434304 0.26061317
0001d0 6e 9c 5e 3e 44 ca c8 3e 79 04 9d 3e 3f e3 2a 3e
       0.2173936 0.39216816 0.30667475 0.1668825
0001e0 ef 19 bf 3e 02 13 80 3e dc b6 6c 3e f4 84 bc 3e
       0.37324473 0.25014502 0.2311663 0.36820185
0001f0 16 36 a8 3e d3 6c f8 bf c6 90 b2 3e 90 30 9e 3e
       0.32853764 -1.940821 0.34876078 0.30896425
000200 96 29 81 3e 6d 39 2d 3e 9d f2 72 3e a3 39 93 3e
       0.2522704 0.16916437 0.23725362 0.2875491
000210 01 c3 a3 3e fb ff c3 3e 92 26 89 3e f3 c1 a3 3e
       0.31984714 0.38281235 0.2678724 0.3198391
000220 ff 4d 96 3e c0 da 61 3e 24 92 9d 3e 6c 5a 5a bf
       0.2935638 0.22056103 0.3077556 -0.8529422
000230 08 3f c5 3e a8 5b bb 3e 67 9f 9c 3d df 62 9b 3e
       0.38524652 0.36593366 0.07647591 0.3034887
000240 15 7b a4 3e 77 63 75 3e 7f 2f 40 3e f3 1e ad 3e
       0.32125154 0.23963724 0.18768118 0.33812675
000250 2a 8a 9e 3e 3f 0a 14 c0 db d3 bb 3e 0c 0d 98 3e
       0.30964786 -2.3131254 0.3668507 0.29697454
000260 8f eb 40 3e f5 28 b5 3e d7 cb 38 3e be 88 3a 3e
       0.18839858 0.3538281 0.18046509 0.18216226
000270 61 5e 68 3e 4e b2 97 3e e3 1a 09 3e 00 52 75 3e
       0.22692253 0.29628223 0.13389163 0.23957062
000280 3f 98 bf 3e ce cf 80 3e 5a 03 99 3e 88 6a 72 3e
       0.37420842 0.25158542 0.2988537 0.23673451
000290 dd f5 a8 3e 2d e5 86 3e 33 49 71 3e 5a a8 78 3e
       0.3300008 0.26346722 0.2356308 0.24282971
0002a0 99 10 88 3e 97 fe 87 3e a8 da 83 3e b0 81 b9 3e
       0.26575163 0.26561424 0.2575276 0.36231756
0002b0 27 07 a6 3e de 3d 49 3e 1a 11 87 3e ca ff 71 3e
       0.32427332 0.19652507 0.26380235 0.23632732
0002c0 b3 83 22 bf 43 9d 84 3e 61 15 af 3e 16 e7 98 3e
       -0.6348221 0.2590123 0.34195998 0.29863805
0002d0 0e 33 89 3e d9 20 8d 3e 95 26 8f 3e 4a 63 7d 3e
       0.26796764 0.27564123 0.27959123 0.24744907
0002e0 2c 82 96 3e 6a 39 7d 3e ee f8 a2 3e 46 e8 89 3e
       0.29396188 0.24728933 0.31830543 0.26935023
0002f0 87 ea 5f 3e 8a e6 be 3e 42 e0 8c 3e d8 55 52 3e
       0.21866809 0.37285262 0.27514845 0.2054056
000300 ee 75 9f 3e 8c 52 43 3e 83 d6 00 3f a4 21 b4 3e
       0.3114466 0.19074458 0.5032732 0.35181916
000310 6d f8 c5 3e 69 e4 99 3e 08 cf 41 3e ee fb d6 bf
       0.38666096 0.30057076 0.18926632 -1.6795633
000320 79 c6 6f bf 0d fe 70 3e a1 65 af 3e 76 92 2a 3e
       -0.9366222 0.23534413 0.34257224 0.16657433
000330 95 25 d1 3e e1 61 9e 3e ea a7 87 3e ae c5 c4 3e
       0.40848985 0.3093405 0.26495296 0.38432068
000340 d8 94 85 3e fd a7 86 3e 5e 23 26 3e 5c dc a7 3e
       0.2609012 0.2630004 0.16224429 0.32785308
000350 ec c7 6c 3e 52 da 4d 3e 87 b4 33 3e ab 68 50 3e
       0.23123139 0.20102814 0.17549334 0.20352428
000360 86 b7 7d 3e ab d1 95 3e bc 8a 80 3e 2d b5 a6 3e
       0.2477704 0.29261526 0.25105846 0.325601
000370 c0 75 86 3e 9a 76 b3 3e e0 32 6a 3e f9 80 78 3e
       0.2626171 0.35051423 0.2287097 0.24267949
000380 d2 5d 86 bb 69 fa d3 3e 91 28 8f 3e f5 0f 70 3e
       -0.0041005397 0.41401985 0.27960637 0.23443587
000390 12 3d 84 3e 9a f7 96 3e 1a b6 cc 3e 48 08 8e 3e
       0.25827843 0.2948578 0.39982682 0.27740693
0003a0 06 7d 2f 3e 94 71 82 3e d4 1a 38 3e 83 4d b6 3e
       0.17137536 0.25477278 0.17978984 0.35606012
0003b0 92 7f be 3e 72 c5 b0 3e 4d 2e 92 3e f2 d9 cf 3e
       0.37206703 0.3452564 0.2855095 0.40595967
0003c0 c6 70 a1 3e 51 e1 39 3e 59 68 98 3e 5c 9a 84 3e
       0.31531352 0.18152358 0.2976711 0.25899017
0003d0 e4 c2 7e 3e 3f 0f c1 3e 82 6f ab 3e 5b 87 42 3e
       0.24879032 0.37706944 0.3348351 0.18996947
0003e0 7f 46 b9 3e cf 8b 9b 3e d1 3b 3b 3e c5 5e 4e 3e
       0.36186597 0.30380103 0.18284537 0.20153339
0003f0 0d f7 85 3e 55 d7 ff bf 15 6b 74 3e 73 96 92 3e
       0.26165047 -1.9987589 0.23868974 0.2863041

fc2.bias f4 [64]
000000 59 b3 5e be 71 20 37 be 4a 1c 49 be e5 3e f2 bd
       -0.21748103 -0.17883469 -0.19639698 -0.118284024
000010 c6 70 35 3f 30 fa c3 bd fe 21 25 3f 35 66 53 be
       0.70875204 -0.09569204 0.6450499 -0.20644458
000020 b7 83 55 be cb b1 09 3f c6 58 49 be 54 f6 20 be
       -0.20851026 0.53786916 -0.1966277 -0.15718967
000030 03 55 13 3f b0 d4 eb bd 0e e0 25 be 76 87 27 bd
       0.5755159 -0.11515176 -0.16198751 -0.04090067
000040 ef 57 2c be 4d 82 81 bd 74 91 25 bd a1 64 2d 3f
       -0.16830419 -0.06323681 -0.040421918 0.6773167
000050 eb c9 72 bd e1 61 5a be 66 24 15 be ef 1d ba bd
       -0.059274595 -0.213264 -0.14564666 -0.09087741
000060 d1 fb d6 bd 2a 3c 52 bd 4c ee 0a 3f 78 ec 02 3f
       -0.10497249 -0.05132691 0.5426986 0.5114207
000070 94 04 29 3f cd 2a 9c 3f ef 30 23 be e4 61 53 be
       0.6602261 1.2200562 -0.15936635 -0.20642811
000080 0c a1 58 be cc e3 d6 bd b0 84 73 be f3 fc de be
       -0.21155185 -0.104926676 -0.23781085 -0.4355236
000090 52 28 37 be b0 d7 9c 3e a0 9d 94 bd c0 59 27 3f
       -0.17886475 0.30633307 -0.07256627 0.6537132
0000a0 cf 27 8a bd 9e e4 2f be 01 85 2d be 18 21 ed bd
       -0.06745874 -0.17177054 -0.16945268 -0.11578578
0000b0 16 97 e1 bd b5 02 23 be 3c 12 2d be ac 3b 5e bd
       -0.110151455 -0.15919001 -0.16901487 -0.054256126
0000c0 b5 9c fd 3e 00 c5 d6 bd f5 3e 79 3f 13 c9 ba bd
       0.4953362 -0.104867935 0.9736169 -0.09120383
0000d0 64 4a 41 be d5 b3 33 be be 06 2e 3f fc 8e fb bd
       -0.18876034 -0.17549069 0.6797904 -0.122831315
0000e0 6b a0 4f be a1 c2 4f 3f 65 38 2b 3f ea 2b 35 3f
       -0.20276038 0.81156355 0.66882926 0.7077013
0000f0 40 a1 0c 3f 81 4a 04 3f b9 f6 5a be cd b1 26 3f
       0.5493355 0.51676184 -0.2138318 0.6511505

fc3.weight f4 [32, 64]
000000 3b 30 14 3d 77 e9 83 bd 83 05 ef 3c 5a 43 03 be
       0.03617881 -0.06441014 0.029177433 -0.12818661
000010 0d c8 be bd b0 39 05 be b7 5c cc 3c f1 22 ee bd
       -0.093155004 -0.13010287 0.024946554 -0.11627758
000020 fd 81 ac 3d 4c 5e 28 be 58 07 52 bd 31 17 c9 bd
       0.08423231 -0.16442221 -0.051276535 -0.098188765
000030 30 d6 e1 bd 59 59 e1 bd df 94 d2 bc 40 99 e8 3d
       -0.11027181 -0.1100337 -0.025705753 0.11357355
000040 41 67 96 bc 5b e2 30 3d 5a 00 3b bd 97 97 d8 bd
       -0.018359782 0.04318462 -0.045654632 -0.105757885
000050 e4 e7 f7 bd d2 36 8b 3d c1 31 b1 bd 57 0e 9f bc
       -0.121047765 0.067975655 -0.08652068 -0.019416017
000060 9f f5 a1 3d b0 50 56 bd ef 0e 96 bd 39 1b 91 bd
       0.07908177 -0.052323043 -0.07327067 -0.070852704
000070 6f 6b 15 be 94 d1 05 3d 14 b6 ab 3d 8b 7e 37 3d
       -0.14591764 0.032670572 0.08384338 0.044798415
000080 4b 16 04 be d8 20 d8 3d 23 3c 3d 3d 50 e2 b7 bd
       -0.12899129 0.105531394 0.04619993 -0.089787126
000090 e4 c8 47 ba 36 f7 b6 bd 4e f0 e9 bc c7 a9 b7 bc
       -0.00076211826 -0.089338705 -0.028556969 -0.022419823
0000a0 fc 9c 95 3d a9 fc 1f 3d e5 8a 95 3d c5 16 44 3d
       0.07305333 0.039059315 0.07301883 0.047873277
0000b0 1c 4f ea bd 58 c7 95 bd 85 a4 03 be fa 3f c5 bd
       -0.1144087 -0.073134124 -0.12855728 -0.09631343
0000c0 aa 5b 4f 3d 82 a1 93 3d 79 f0 69 3d 97 70 04 be
       0.050624527 0.072085395 0.0571141 -0.12933575
0000d0 1e eb 88 3d d5 9a 7a bd 74 23 f3 bd 68 ed eb bd
       0.0668547 -0.061182816 -0.118719965 -0.11519891
0000e0 62 53 b5 3c 89 97 ea 3c e5 99 6e 3d 71 74 54 bc
       0.022134487 0.02863671 0.058252234 -0.012967215
0000f0 f2 a3 bd bd 98 94 cc bd c8 7e 44 3d 3c a0 18 be
       -0.09259786 -0.099892795 0.04797247 -0.14904875
000100 e5 b1 c0 3e e6 ef de 3e 61 69 93 3e fe 48 bc 3e
       0.37635723 0.43542403 0.28791335 0.3677444
000110 05 87 ab bf c5 53 b6 3e 1d 70 a2 bf 28 83 f1 3e
       -1.340058 0.35610786 -1.2690464 0.47170377
000120 e3 e0 ab 3e 44 26 a5 bf da 79 de 3e 26 b1 fb 3e
       0.33570012 -1.2902303 0.4345234 0.4915859
000130 79 a2 84 bf 9f 6f ad 3e ee a1 7a 3e 82 d0 e8 3e
       -1.0362083 0.33874223 0.24475834 0.4547158
000140 12 58 df 3e 60 86 e9 3e a9 94 bd 3e 5c 0d b0 bf
       0.4362188 0.45610332 0.3702748 -1.3754077
000150 8f 62 f8 3e 14 d4 d3 3e 87 8f d4 3e 93 8a ef 3e
       0.48512694 0.4137274 0.41515753 0.4678541
000160 30 de 95 3e 89 6c b5 3e 04 3e 9f bf 4b 83 04 bf
       0.29271078 0.35434368 -1.2440801 -0.5176284
000170 6c bf a5 bf 65 f1 c4 3f bf b3 87 3e 4f 39 dc 3e
       -1.2949042 1.5386168 0.26504323 0.43012473
000180 ad e3 f8 3e 16 26 ae 3e 00 d4 a9 3e 14 03 57 bd
       0.48611203 0.34013432 0.33169556 -0.05249317
000190 a2 6b ea 3e e2 3d 46 3f e4 ca ff 3e 92 d7 96 bf
       0.45785242 0.77438176 0.4995948 -1.1784537
0001a0 27 d0 04 bc 18 1d f9 3e ff 66 8b 3e 81 1b ae bd
       -0.008106268 0.4865501 0.27227017 -0.0850134
0001b0 e6 b1 dc 3e ba 2a 8e 3e cb 61 8b 3e 17 f9 e9 3e
       0.43104476 0.27766973 0.27223048 0.45697853
0001c0 29 da 97 bf f1 ba 9f bd 28 64 c8 3f 8a 0e 00 3f
       -1.1863452 -0.07799328 1.5655565 0.50022185
0001d0 8d 8e f1 3e 0b 05 f3 3e 56 bb 89 bf 95 44 cb 3e
       0.4717907 0.47464785 -1.0760295 0.3970076
0001e0 b1 1a bf 3e 46 09 c8 3f d6 da ac bf 7f 4a a8 bf
       0.3732505 1.562783 -1.3504283 -1.3147734
0001f0 34 e3 35 3f b0 f1 aa bf ec 0c 00 3f 11 8c a4 bf
       0.7104981 -1.3355007 0.5001972 -1.2855245
000200 68 98 86 bc 8c ea 77 3d c0 02 ed bc 9a bf eb bd
       -0.016430095 0.060526416 -0.028931975 -0.115111545
000210 29 d6 4f bd ca 49 fe bd 06 fb 08 be 12 13 cd 3d
       -0.05074135 -0.12416418 -0.13377008 0.10013403
000220 06 6d c9 bd 3c f8 ac bd 28 cf 0a 3d e2 ca a7 bd
       -0.09835248 -0.084457844 0.033888966 -0.08192994
000230 20 47 41 bd 80 50 75 bc 44 c7 3a bd fc 3d 99 3c
       -0.04718697 -0.014972806 -0.04560019 0.018706314
000240 94 d6 a7 bd 48 59 4a bd d4 d7 ce bd a9 90 4d 3d
       -0.081952244 -0.04940155 -0.1009976 0.050186787
000250 9d 03 d6 bd a8 78 8c bc 48 07 fa 3c d0 c0 ab 3c
       -0.10449908 -0.017147377 0.03052105 0.020965964
000260 24 73 5a bd ca 9e 8f bd e6 24 02 be 20 e6 9e 3d
       -0.053332463 -0.070127085 -0.12709388 0.077587366
000270 d1 2f d8 3d 00 52 2b 3a 3c 21 f6 3d 10 9f 90 3d
       0.10555995 0.0006535351 0.12018058 0.07061589
000280 1c f5 4d 3d f6 f3 c2 bd 88 a9 e0 bd a2 e8 93 bd
       0.050282583 -0.09519188 -0.109698355 -0.072221056
000290 74 85 d1 bd ee 1f f8 bd 08 a5 c3 3c 5d 1e cf 3d
       -0.10230532 -0.12115465 0.023882404 0.10113213
0002a0 50 27 af 3d c8 6d f9 bc ca a5 e1 3d 26 a7 9a 3d
       0.0855242 -0.030447856 0.1101795 0.07551412
0002b0 86 ea cb bd a4 d3 75 3d 40 8f df 3b 86 79 c2 bd
       -0.09956841 0.06001629 0.0068224967 -0.09495835
0002c0 70 05 d6 bc 40 51 61 3d 00 a0 06 39 e0 1e af bc
       -0.02612564 0.055009127 0.0001283884 -0.021377027
0002d0 00 a2 fe 39 38 ea ee bd 1d ad b5 3d dc a9 7d 3d
       0.00048567355 -0.116657674 0.08870909 0.06192957
0002e0 18 40 97 bc 28 2c bd bd b1 ad 31 3d a7 64 04 be
       -0.01846318 -0.09236938 0.043378536 -0.12929021
0002f0 1c ac 70 3d e5 e3 85 bd ca 7e d1 bd f0 e2 02 be
       0.058757886 -0.06537608 -0.10229261 -0.12781882
000300 20 17 85 3e 9f 38 a3 3e da be ec 3e 94 56 c8 3e
       0.25994205 0.31879136 0.46239358 0.39128554
000310 0e b0 bf bf 20 fa a6 3e 3f 10 a5 bf bd 80 00 3f
       -1.4975603 0.32612705 -1.2895583 0.5019644
000320 e4 ab ca 3e 55 da a1 bf bb be a9 3e f3 9d 85 3e
       0.39584267 -1.2644755 0.33153328 0.26097068
000330 27 04 96 bf 65 e3 bb 3e 63 84 b8 3e 82 3f 8f 3e
       -1.1720017 0.36696926 0.36038503 0.2797814
000340 4b b4 a1 3e b3 08 8d 3e b0 04 a0 3e b7 a9 bb bf
       0.31582865 0.275457 0.31253576 -1.4661168
000350 5d 9b 83 3e f2 89 b7 3e ef 86 d7 3e 94 09 fc 3e
       0.2570447 0.3584743 0.42095134 0.49226058
000360 18 f1 f8 3e e9 d7 f9 3e 1e 04 bd bf da 3d 0f bf
       0.4862144 0.4879754 -1.4766881 -0.55953753
000370 25 bf b7 bf 99 fd 96 3f 4e 83 ef 3e be 84 dc 3e
       -1.4355208 1.1796142 0.46779865 0.43070024
000380 63 54 b4 3e c5 23 f5 3e e6 ec a5 3e ea 94 91 bd
       0.35220632 0.47878852 0.32407302 -0.07108481
000390 ee eb e0 3e 4a e0 dc 3e ab d7 ef 3e c0 fb a7 bf
       0.4393 0.4313987 0.4684423 -1.3123703
0003a0 2d 96 a9 bd ff 66 e3 3e e0 65 c6 3e 08 73 08 3c
       -0.08280597 0.44414517 0.387496 0.008328207
0003b0 36 55 bc 3e f1 0f bf 3e 75 70 ee 3e 02 af d0 3e
       0.3678376 0.3731685 0.46570173 0.4075852
0003c0 55 c4 aa bf 0b 14 96 bd 0f 06 9e 3f 7a 3b be 3e
       -1.3341166 -0.07328042 1.2345599 0.37154752
0003d0 a0 3c a2 3e 8e 82 b1 3e 2e c7 b1 bf 75 65 9d 3e
       0.31686878 0.34669918 -1.388891 0.30741468
0003e0 32 02 fd 3e 41 8d ab 3f 67 dd ba bf a9 7f c3 bf
       0.49415737 1.3402482 -1.4598817 -1.5273334
0003f0 cf 2b 14 3f 3c 45 cd bf f3 96 d8 3e 69 f0 b2 bf
       0.57879347 -1.6036754 0.42302665 -1.3979617

fc3.bias f4 [32]
000000 79 19 91 3d 36 b9 da bd a9 9a 7c 3c bf b8 0e be
       0.07084937 -0.106798574 0.015417733 -0.13937663
000010 74 66 b7 bd 90 c8 40 be 31 8a 00 3d 8f 5e 2a be
       -0.08955088 -0.18826509 0.03138179 -0.16637634
000020 a2 ac 0a be 3d 74 7c 3d 59 da c7 bd 05 c6 83 bd
       -0.13542417 0.06163429 -0.097584434 -0.064342536
000030 15 7b df bd 65 48 30 be 38 6f c5 bd dc 92 ff bd
       -0.10912148 -0.17215116 -0.09640354 -0.12479183
000040 e2 4e 8e be 0b c5 0f be 38 b6 56 bc 15 89 59 3f
       -0.27794558 -0.1404001 -0.013104968 0.84974796
000050 90 ac 32 3d 3d 3a 8b 3e 66 88 ae bd 6e 9e 34 be
       0.0436216 0.2719287 -0.0852211 -0.17638561
000060 04 69 18 bd 89 e0 a7 3d 1f 4a 72 3a fb a8 dd bd
       -0.037209526 0.081971236 0.0009242612 -0.10823246
000070 53 dc 5c be 09 51 1a bd 66 05 c5 3d 2a 53 6f 3b
       -0.21568422 -0.037674937 0.0962017 0.0036518076

fc4.weight f4 [1, 32]
000000 a2 4c a2 bd c4 34 12 3f 60 df 18 bd cf d9 17 3f
       -0.07924773 0.57111764 -0.037322402 0.59316725
000010 ef 4e c8 bd bd d9 fa 3e b5 f1 75 3f 47 00 f5 3e
       -0.097806804 0.48994246 0.9607194 0.47851774
000020 8f 79 bd 3c 7f 3e e4 bd f8 ef 87 bd ce 7c ff b9
       0.023129253 -0.11144733 -0.06637567 -0.00048730377
000030 1c 55 1d 3f b6 96 1f 3f f5 23 0f 3f 9b 93 d3 3d
       0.6145799 0.6233934 0.5591424 0.10330888
000040 92 8b e9 3e 59 e5 f2 3e 73 2f fb 3e a9 f9 a7 bf
       0.45614296 0.47440603 0.49059638 -1.3123065
000050 c0 75 9f bc c8 e5 19 3f d2 ed b2 bd a4 e5 f4 3e
       -0.019465327 0.60116243 -0.08736767 0.47831452
000060 01 80 09 3f f3 11 00 bd 44 b0 0a 3f 64 a3 04 be
       0.53710943 -0.031267118 0.5417521 -0.12952954
000070 7a 71 14 3f 02 21 fe bc e9 99 6c bd 43 b1 1f 3f
       0.5798565 -0.031021599 -0.057763968 0.62379855
