Router/Sales_Prediction/Saved_Models/NN Model/NN_shade_model.pth (torch, 68244 bytes, 7 tensors)

fc1.weight f4 [128, 45]
00000000: 87a6 e43e fe06 64bf 3726 47bf f9cb 28be
00000010: 3e3a 08be da5b 3d3e d3c8 67bf f3d3 773e
00000020: 9d67 48bf f846 67be 1277 b93c dec4 1cbe
00000030: 42b1 9d3b 5ac4 0bbe a30c 26be bb41 1bbd
00000040: 02b6 e9bd 850e 40be 7f1c 35be 70e5 62be
00000050: 89e4 d23b 01ba 1bbe 03e1 84be b045 66be
00000060: d6f5 79be fe38 8ebe f4b6 f53c 326b f2bc
00000070: ebce 60be af7e 15be eb41 1d3a 6875 13be
00000080: 247d 033d a4c5 aa3c 1bac 623d c1c8 97bd
00000090: 69c5 e3bc 414d 593d 7903 1dbd 3236 60bd
000000a0: eb0d 95bc 58c3 8d39 8e80 4d3d 21b2 debd
000000b0: fe3b bc3d d407 1d3e 7b8c 28be 0d4b 23be
000000c0: 63f6 9fbd 8887 a5bc 5c83 edbd 5090 81bd
000000d0: 402d 503d 9f20 323e c41d 3c3e 9f77 b9bd
000000e0: e175 4b3e 0997 b73d 91a6 d73d e7e9 18bd
000000f0: 5b02 4f3d 3ab2 70bc 80fd b93d dc4f 283e
00000100: 31bd f8bc 3d3c 443d a1df b23d 62a2 cf3d
00000110: 3fb9 d13d ec93 b7ba 2c44 e03d 83a0 b13d
00000120: 547b 933d 3c55 dd3d 8645 a43d 79d0 043c
00000130: 9a87 f33d 4a62 2f3d c28c da3d 6b0d 803d
00000140: 0bba 6fbc 990b fa3c e4d2 7e3c 6c74 cb3d
00000150: c1b0 393d b2b3 0dbc 1c07 333d 1e3f 3a3d
00000160: ba09 223e ac10 193d 13e8 1abc 8ca1 03bd
00000170: c9d8 07bf 21bc 4dbe 78b9 2ebf b056 f93e
00000180: c046 2ebf 6465 bb3e ff23 9a3f 9573 acbd
00000190: 5647 1cbd 663f c9bc b6f1 cfbd aaa7 efbd
000001a0: d9a5 0fbe 1bb1 6d3e e016 88bd 5c9b 45be
000001b0: 748d 4fbd 4d69 b1bd dc27 84bd e7c0 febd
000001c0: 3e8d d33c f1ab 8cbc 6900 01ba 0212 0cbc
000001d0: 62a2 41bd ff93 4c3d dbed 073d 8b06 90bd
000001e0: ed85 0fbd a0ea e4bb 8373 49bd 6548 8b3d
000001f0: 91a4 48bc 6edc 70bd b081 833b 2b5b 03be
00000200: 5977 9ebc a172 9abd 60d4 cd3c 0b9a 56bd
00000210: f106 c1bb d5e9 96bd 6958 b0bc 29c4 ef3d
00000220: a38f 843d 6c60 a7be 5bb7 b4be 421d 3dbe
00000230: 487b a73e c30d c9be 52ae 033e bd79 8d3e
00000240: 7dc2 1cbe 9597 8d3d b469 c8bc 11d2 90bd
00000250: e39d 2abe c5d8 7fbe 3bf0 eebd d4f8 dabd
00000260: 5595 2cbe 7589 94bd 9cb3 fabd 513b 12bd
00000270: 9cda dfbd 9a5b 30bd b078 debd 872e dabd
00000280: d294 e7bd 71c6 adbd 4987 853d cce3 41bd
00000290: 8f5c 68bd aca6 843d 6541 9bbc c569 1cbd
000002a0: 9314 f4bc dc39 30bb 88b3 59bb 2996 afbc
000002b0: 814b 60bb 4be8 93bd 7f1f 7fbd 989c 89bd
000002c0: dbbc f6bc fa78 a539 cec9 83bd e49e c638
000002d0: 3b3b 733e 39cf 3e3d 2c18 0fbf 16a6 0f3e
000002e0: e4db 00bf 98be 9fbe e4ab 933d 008c 473f
000002f0: 44c2 8abe 28e9 e03c 75ac e33d 2d34 8a3d
00000300: 97f9 8fbd a374 9cbd 0201 08be e4cf 24bd
00000310: 5a90 00be 7c4d cbbc ec04 eabc 89d1 91bd
00000320: c1da 05bd 6044 28bd 0f8c cfbc d4fc dfbc
00000330: 230d c0bd 8add c4bc 8d6a dfbc 9252 d6bc
00000340: 42d6 a9bc 9b03 5fbd 4fc6 afbc 36d6 dd3c
00000350: eac3 17bd 788f 0a3d 0e8f 20bd 0e2a 603d
00000360: 4c51 1739 a1dd 73bc 0998 56bc b2f5 fb3c
00000370: fbed 9dbc fadf 7bbc 7194 09bc 154e 623d
00000380: 6784 71bc 34e3 663e 7528 6fbd 4b95 02be
00000390: a016 e13c cc01 ca3c 1811 2e3e 92aa 12be
000003a0: 6159 83bd 267e 7cbc 3ce6 aa3d 442a 13bd
000003b0: 2a63 003d ca6d a5bd 22f7 ba3c e4fc d8ba
000003c0: 4a63 89bd a44b a2bc abe3 153e bf95 603c
000003d0: 5579 653d 5277 023e 730f 703d 8ac7 983d
000003e0: 4126 943d 3bf3 ea3b 7c10 253d d64f 783c
000003f0: 5ca0 053e 500b 4c3d 1330 7e3d d424 bd3d
0.446583 -0.8907317 -0.77792686 -0.1648406 -0.13303468 0.1849207 -0.9054081 0.24201946
-0.782831 -0.22585666 0.022639785 -0.15309474 0.0048123905 -0.13649121 -0.16215758 -0.037904482
-0.11411668 -0.18755539 -0.17686652 -0.22157836 0.006435935 -0.15207674 -0.2595292 -0.22487521
-0.24410185 -0.27777857 0.029994465 -0.02959213 -0.21953933 -0.14599107 0.0005998897 -0.14400256
0.032101765 0.020846196 0.055339914 -0.07411338 -0.027804093 0.05305219 -0.03833339 -0.054739185
-0.018195113 0.00027039158 0.050171427 -0.10873819 0.0919113 0.15335017 -0.16459839 -0.15946598
-0.078106664 -0.020206228 -0.115973204 -0.063263535 0.050824404 0.17395256 0.1837073 -0.09056019
0.19869186 0.089643545 0.10529817 -0.03733244 0.050539356 -0.01469093 0.090815544 0.16436714
-0.030363651 0.04790901 0.0873406 0.10138394 0.10240411 -0.0014005876 0.10950503 0.08673193
0.07201257 0.10807273 0.08021073 0.008106344 0.11891098 0.042818345 0.10671379 0.06252559
-0.014631758 0.030523108 0.01555321 0.09934315 0.04533458 -0.0086488 0.043707952 0.04547035
0.15824023 0.037369415 -0.009454745 -0.032136485 -0.5306516 -0.20091297 -0.6825175 0.4869895
-0.68076706 0.36600792 1.2042235 -0.08420483 -0.03815397 -0.024566364 -0.101535246 -0.11701901
-0.1402811 0.23212092 -0.06644988 -0.19297546 -0.05067201 -0.08662663 -0.06452915 -0.12439137
0.025824185 -0.017171832 -0.00049210206 -0.008549215 -0.047274 0.049945828 0.03318582 -0.07032498
-0.03503983 -0.0069859773 -0.049182426 0.068009175 -0.012246267 -0.058803968 0.0040132627 -0.12827747
-0.019344019 -0.07541395 0.025125682 -0.052393 -0.00589072 -0.07368819 -0.021526532 0.117073365
0.06472709 -0.32690752 -0.3529614 -0.18468192 0.32711244 -0.39268312 0.12859467 0.2763194
-0.15308566 0.069136776 -0.024464466 -0.07071317 -0.16661792 -0.24985035 -0.11666914 -0.106919914
-0.1685384 -0.0725278 -0.12241289 -0.0357011 -0.10930368 -0.043056108 -0.10862863 -0.10653406
-0.11307682 -0.08485115 0.06519944 -0.047336385 -0.056728896 0.06477103 -0.018952081 -0.038186807
-0.029794967 -0.0026889956 -0.0033218581 -0.021433907 -0.0034224691 -0.07222041 -0.062285896 -0.06719321
-0.03011935 0.00031561387 -0.064349756 9.4709714e-05 0.23753063 0.04658434 -0.5589626 0.140282
-0.50335526 -0.312001 0.0721052 0.77948 -0.27101338 0.027454928 0.11116878 0.06748233
-0.07030027 -0.07639434 -0.13281634 -0.040237322 -0.12555066 -0.02481722 -0.0285668 -0.07120044
-0.032679323 -0.041080832 -0.02533534 -0.027342238 -0.09377506 -0.02403142 -0.027272487 -0.02616242
-0.020732049 -0.054446798 -0.021456866 0.027079683 -0.037052073 0.03382823 -0.039198928 0.054727606
0.00014430768 -0.014884383 -0.013097771 0.030756805 -0.019278517 -0.015373224 -0.008397208 0.055250246
-0.01474104 0.22547609 -0.058388192 -0.12752263 0.027476609 0.02465906 0.16998708 -0.1432288
-0.06413532 -0.0154109355 0.08344695 -0.03592898 0.03134457 -0.08077581 0.02282292 -0.001655486
-0.06708391 -0.019811459 0.1463763 0.013707577 0.056023914 0.1274083 0.058608484 0.07459934
0.07233859 0.0071701086 0.040298924 0.015155753 0.13049453 0.049815476 0.062057566 0.0923554

fc1.bias f4 [128]
00000000: e7c6 883d a99f a8be 4eba 0abe 7bf5 1cbe
00000010: 3d79 93be 3db3 9dbe e76e 58bd d29e 3ebe
00000020: aa7f 52be b5a7 31be e148 5bbe f89c 89be
00000030: 2635 adbe bcd0 8abe 3734 c7bd 0a31 53be
00000040: 00c6 62be f153 38be 80f4 33be d7fb 91be
00000050: 58ae ffbd 83b0 b2bd 02a7 8cbe 4a9d 46be
00000060: b9e2 bdbd 1835 81be ee55 e1bd a41b 87be
00000070: c424 23be c74b 96be 489f cdbe e88a 9fbe
00000080: ce62 93be f7ed 39be b53e 3abe 4632 47be
00000090: a334 23be faff 24be 1448 fe3e 7afd 7bbe
000000a0: 6e07 93be 4fe3 60be 48df a8be 15c3 a0be
000000b0: 4aee e3be 9430 a4be 7f50 51be 7867 cdbd
000000c0: 6d31 67be 0dcd e1bd ca41 18be daaf 9bbe
000000d0: 9a6d 8abe 702d 8ebe ca13 22be b41a 01be
000000e0: 8223 87be b0f9 11be 3334 9cbe a39f 65be
000000f0: 8935 3ebe 4286 90be 7b7b 1fbe 3b86 c73e
00000100: 5e8c 66be 02cd 69be 3a02 51be 26be 64be
00000110: 3480 6dbe 8d6c 7abe 93fd afbe 8a09 b0bd
00000120: e1be 9ebe 8ac1 6bbe 1ab3 41be 84fc 73be
00000130: 8105 93be 57b9 80be 37d5 3bbe 37bb 8abe
00000140: e64b 6cbe 8797 abbd b34c 49be c01c 5bbe
00000150: 3ebd 13be 2c17 50be 21f4 81be bdd0 55be
00000160: 3843 abbe a96b 25be eb8c 13be 2eba 90be
00000170: 11c1 f33e 63b0 adbe 7f77 87be 4dc8 b6bd
00000180: 153e 4bbe ccd5 3cbe 256e 2ebe 1747 2fbe
00000190: 85f7 673b 63af f83e e5b4 b7be 3fde 82be
000001a0: 518f 46be e27d 94be 972f 84be d3c6 37be
000001b0: 6796 70be db75 5ebe 52fd 56be 89b6 90be
000001c0: 5acf a3be 1d48 a5be 9ffa 22bd 1a1a 4dbe
000001d0: c5fd 92be 2ef7 d93d 25ba 60be 52ca 76be
000001e0: 1c5b 44be 9bc5 7abe 5dfd 07be 09f9 c2be
000001f0: a855 82be 57eb 56be f48c 2dbe f4fc 6abe
0.066785626 -0.3293431 -0.13547632 -0.15328018 -0.28803435 -0.3080081 -0.05284014 -0.18615273
-0.20556512 -0.17349131 -0.2141452 -0.2687757 -0.33829612 -0.27112377 -0.09726756 -0.20624176
-0.22145844 -0.18000771 -0.17573738 -0.2851245 -0.12484425 -0.08725073 -0.27471167 -0.19395939
-0.092717595 -0.2523582 -0.11002718 -0.26388276 -0.15931994 -0.2935469 -0.40160584 -0.31160665
-0.2878632 -0.18157183 -0.18187983 -0.19452772 -0.15938048 -0.16113272 0.49664366 -0.24608412
-0.28716606 -0.21961711 -0.3298285 -0.31398836 -0.44517738 -0.32068312 -0.20440863 -0.10029501
-0.22577448 -0.110254385 -0.14868847 -0.30407602 -0.27036744 -0.2776904 -0.15827861 -0.12607843
-0.26394278 -0.14255404 -0.30508575 -0.22424178 -0.1857511 -0.2822743 -0.15574448 0.38969597
-0.22514483 -0.2283211 -0.20411006 -0.22338161 -0.23193437 -0.24455471 -0.3437315 -0.085955694
-0.31005004 -0.23023048 -0.18915978 -0.23826796 -0.28715137 -0.25141403 -0.18343054 -0.2709596
-0.23075828 -0.08378511 -0.19658165 -0.21397686 -0.14427659 -0.2032134 -0.25381568 -0.20880409
-0.3344972 -0.1615435 -0.14409225 -0.28267044 0.47608235 -0.33923635 -0.26458356 -0.08924923
-0.19847901 -0.18440932 -0.17034204 -0.17116962 0.0035395336 0.4857131 -0.358802 -0.25560185
-0.19390608 -0.2900229 -0.25817558 -0.17946939 -0.23494874 -0.21724646 -0.20995072 -0.28264263
-0.31994134 -0.3228158 -0.039789792 -0.20029488 -0.28709236 0.10642849 -0.21946009 -0.24100617
-0.1917538 -0.24489443 -0.13280244 -0.38080624 -0.25455976 -0.20988213 -0.169483 -0.22948056

fc2.weight f4 [64, 128]
00000000: bf19 103f d42e 053d 5c25 c33e 2a6f 803e
00000010: 6336 823e 1906 77bd 8f82 e33d ddb8 fd3d
00000020: 2f20 603e ecfc 783e b631 523e 1027 203e
00000030: d6bb b33d a1a6 3a3e ed93 813e 4a4b 513e
00000040: 6b17 0f3e c49a 903f 3674 ce3e 161c 923e
00000050: 8b92 2d3e ef8d 4c3e 4012 6d3f b7c9 2a3e
00000060: 0d32 0b3e a11b 463e 67cc c83d 3949 b2bd
00000070: d059 e33d e7ce 163e a735 1f3d 1d72 743d
00000080: bdb1 513f 37d6 f23d c687 d93d d7aa 1f3e
00000090: 87f4 c6bb 7b29 4b3e 314d e3bf 2887 483e
000000a0: ad76 d73c 02d1 743e 5fd2 58bd fa6f 4b3e
000000b0: 7a7f f33c d6d2 b33d 6856 613e 722a 033f
000000c0: f7d0 003f 15f2 8b3e 7121 413d d63d ec3d
000000d0: db3d f83d 7d7a 313e 6462 7d3e 47ea 5d3e
000000e0: 94c0 973e 8ede d13e d899 143e 7378 983e
000000f0: 8322 a73d 8f48 df3d 05eb 0a3e c0ff c8bf
00000100: b660 8c3e fcf8 893e 9288 2a3e ade1 7f3e
00000110: c3d2 9d3d 7f48 d73d a32c 7c3e 3487 cc3d
00000120: 197a 1fbd 2373 fe3d 0b0c 323e e76c f03c
00000130: 223c 6a3e 5daf 0d3e b51d 873d 777c 7e3b
00000140: 2b74 193e f449 303e 6a95 d93e e9e1 9b3e
00000150: b907 553e 8f96 253e 34cf 4d3e 4cf4 0e3e
00000160: a27e e53d 40cc 2e3e a4cb 433e 7491 083e
00000170: 0a93 e9bf 9752 2e3e 4f9f 6b3e 85f1 ae3d
00000180: faed 2d3e 5515 1a3e 38f5 1c3e c849 683e
00000190: 4f62 6f3f 63bf 03c0 d7b8 2c3e e5b9 b13e
000001a0: 150a 963e 7109 d13d 83e2 7d3e 9117 8b3c
000001b0: c4e0 403e 2d7c 633e d99f b23d 6ebb 513e
000001c0: 5bf5 2b3e d6b6 c53d 01b8 ef3d 4b83 b13d
000001d0: 7c35 3d3e 0038 9a3f e57d e33d 8f83 ac3e
000001e0: 913a a83d 25f6 7c3e 5ce8 e13d 9f7f 983e
000001f0: 33fa 783e 03af f83d be64 203e 4a9b d83e
00000200: 0dab cebe 6d1e 04bd d91e dcbe db89 ae3d
00000210: 109f 01be e74e 983e 340e 293c 0f03 fb3e
00000220: a8bf 9c3e 7cea 2a3e 4a01 833e f4ed b73d
00000230: f08d 193f 9fc2 af3c 3779 b4bd 827d 1ebd
00000240: ac44 af3e 2a7e 85bf c2bd c5be a316 9f3e
00000250: 4c0c 143e a658 d43e cff9 7bbf 895e 113e
00000260: 45d4 473e 9dce 60bd c396 723e abb1 073f
00000270: 4490 253d e952 3e3f 7cc0 a13d 893b 143e
00000280: fca3 61bf 4551 b8bd 1e52 993d 9563 7e3c
00000290: eb8a 123e cd1c c2be a70f 9d3f 3b1a f53d
000002a0: b2a3 32bc 0ca5 033f 9b92 853e a3cd d83c
000002b0: fa53 573e 697d 5bbd 1cfd 133e cc14 04be
000002c0: fcee 67be 9c59 afbd 42d9 be3e 1c57 8f3e
000002d0: b8ea f43d 3cc5 8c3d 8794 a03e e44e abbb
000002e0: 3a1d 5d3d ed70 44be f41b 1e3d 37a7 07be
000002f0: a9f8 803e 9f0d debd d34f 453e a9a0 bd3f
00000300: 1b64 3bbe f6be 44be cf0c bdbc 93c8 e03e
00000310: f6bd ffbc d92c 1a3e aec5 d03d 8ebd ab3e
00000320: 8b62 b43e 6fb4 c33e f931 8bbe 45f3 a83e
00000330: 29cc 27be 475a 563e f727 7c3e d88d cd3e
00000340: a192 a7be c189 93be 1b79 0cbf 6372 ac3e
00000350: f996 f73c 6085 d33d 3e19 e43c 80a1 b13e
00000360: 35f5 183f b608 043f cbbf e23b 8c57 48be
00000370: 581d d53f 5e4c 583f 6958 43be 329a 9b3d
00000380: 75d7 eb3d c216 833d 7798 703e d8e8 303e
00000390: 2722 5abf 0634 d03f 688a 483e 1816 eb3c
000003a0: 7f4b 0dbd c8a0 d93e fbde 9a3e 9bd7 543e
000003b0: 56ef 1fbb ff57 19bd 984a 503d 0bfa 323e
000003c0: a00f 823d 6467 733e 977e f9bd 7400 a33e
000003d0: 2522 a53c 13eb 55bf c570 293f e90d d73d
000003e0: f899 f6bd d53e e23d 568f cd3e 58d8 f3bd
000003f0: 6de1 3dbd 8b47 4dbd 7e5b 7539 6c3d 5bbe
0.56289285 0.032515362 0.3811444 0.2508481 0.2543212 -0.06030855 0.111088865 0.123887755
0.21887277 0.24315232 0.20526776 0.15639901 0.08776061 0.18227626 0.2530817 0.20438877
0.13973777 1.1297231 0.40323037 0.28537053 0.16950433 0.19976018 0.9260597 0.1667851
0.13593312 0.19346477 0.09804612 -0.08705372 0.11101115 0.14727364 0.038869526 0.05967914
0.8191183 0.118572645 0.106216 0.15592514 -0.0060716304 0.19840042 -1.7757932 0.19582808
0.026301706 0.23907855 -0.052935 0.19866934 0.029723871 0.08780448 0.22005618 0.5123664
0.50318855 0.2733313 0.047151033 0.11535232 0.12121173 0.17331882 0.24744564 0.21671401
0.29639113 0.40990108 0.14511812 0.29779395 0.081608795 0.10902511 0.13566215 -1.5703049
0.27417535 0.26947773 0.1665366 0.24988432 0.07706215 0.105118744 0.24626403 0.099867254
-0.0389348 0.12424304 0.17387407 0.029348804 0.22874501 0.13836427 0.06597463 0.003883151
0.14985721 0.17215711 0.42496806 0.30445793 0.20803727 0.16170715 0.20098573 0.1396038
0.11205794 0.17070103 0.19120651 0.13336736 -1.8247998 0.17023693 0.2300999 0.0854216
0.16985312 0.150472 0.15327919 0.22684395 0.9350938 -2.0585563 0.16867386 0.3471214
0.29304567 0.10206879 0.24793439 0.01697901 0.18835741 0.22215338 0.08721895 0.20481655
0.16792814 0.09654014 0.11705018 0.0866762 0.18477434 1.204834 0.11107997 0.3369412
0.08214296 0.24703272 0.11030647 0.29784867 0.24314193 0.12142756 0.1566343 0.42305976
-0.40364876 -0.03225558 -0.42992285 0.085223876 -0.12658334 0.29747698 0.010318328 0.4902577
0.30614972 0.16691011 0.2558692 0.08980933 0.59982204 0.021455107 -0.088121824 -0.038693912
0.3423208 -1.0429127 -0.38621336 0.31071958 0.14457816 0.41473883 -0.9842805 0.14196219
0.19514568 -0.05488454 0.23690324 0.53005475 0.040420786 0.7434526 0.078980416 0.14475836
-0.88140845 -0.08999876 0.07486366 0.015526672 0.14310805 -0.37912598 1.2270402 0.11967894
-0.010903286 0.51423717 0.26088414 0.026465243 0.21028128 -0.053586397 0.14452022 -0.12898558
-0.22649759 -0.085620135 0.3727513 0.27996147 0.119588315 0.06873557 0.31363317 -0.0052279104
0.05398295 -0.19183703 0.038600877 -0.13247381 0.25189713 -0.10842442 0.19268732 1.4814655
-0.18299906 -0.19213471 -0.023077397 0.43903026 -0.03121851 0.1505617 0.101939544 0.33543056
0.35231432 0.38223597 -0.27186564 0.329981 -0.16386475 0.20932876 0.2462462 0.4014728
-0.32729056 -0.28816035 -0.5487229 0.3368102 0.030223357 0.10328174 0.027844068 0.34693527
0.59749156 0.5157579 0.006919836 -0.19564646 1.664958 0.8449153 -0.19076695 0.0759777
0.115157045 0.06400825 0.2349566 0.17276323 -0.8520836 1.6265876 0.19584048 0.028697059
-0.034495827 0.4250548 0.30248246 0.20785372 -0.002440413 -0.037437435 0.05085239 0.17478196
0.063506365 0.23769909 -0.12182348 0.31836283 0.020157883 -0.8356182 0.661877 0.105007
-0.12041086 0.110471405 0.4014842 -0.11906499 -0.04635756 -0.050117057 0.00023399104 -0.2141015

fc2.bias f4 [64]
00000000: 4cba 903d 023a eebd bc35 973d 7249 8fbd
00000010: ba86 1a3d b320 14bd 9131 8e3d 63cc e03e
00000020: 8b1a 653c 5164 1ebc e54f afbd 536a a3bd
00000030: 4a55 d03d 2a77 4cbd 459c 643e c8a6 c03e
00000040: 45b1 0e3f 9931 fc3e 4d9d 9e3d 3c8c 963d
00000050: 628e b13c 2078 d43d 858e 9ebd ac4d 183f
00000060: f943 403e 7f5e c0bb 21b4 4a3d fc69 e33e
00000070: 4e93 7e3d 43cd 3c3f 8ecc 27ba 9ec4 a23d
00000080: 728d d7bb b921 cc3e 784d 15bd 2ff9 72bd
00000090: 2c49 e9bc 55b5 4a3d 4982 c53e 96d6 ffbc
000000a0: 62ba 293d e2a2 e73d ef0e 983d 0d26 783d
000000b0: e2f3 2b3e a107 f43c cac9 5f3e 598b 93bb
000000c0: a73e 813d 403f b8bd 101b bfbd 5689 553d
000000d0: 87cc 623d 6511 d73e 77aa a63e c3f8 aa3e
000000e0: 5802 003d c51f de3e d745 043d bbd7 843e
000000f0: 307e ab3d f766 5a3e db6a 003d a355 4a3b
0.07066783 -0.11632158 0.07383296 -0.069964305 0.03772614 -0.036163997 0.06943048 0.43905935
0.013983379 -0.009667472 -0.085601605 -0.07979264 0.101725176 -0.04991833 0.22325237 0.37627244
0.5573924 0.4925659 0.077448465 0.07350966 0.021674339 0.103744745 -0.07742027 0.5949352
0.1877593 -0.00587064 0.04948819 0.44416797 0.0621522 0.73750705 -0.00064010255 0.07947658
-0.006578141 0.39869478 -0.036450833 -0.05931967 -0.028477274 0.049489338 0.38575962 -0.031230252
0.041437514 0.11310364 0.07424723 0.060583163 0.16792253 0.029788794 0.2185432 -0.0045026955
0.06310778 -0.08996439 -0.09331334 0.052132927 0.055370834 0.42005458 0.3255193 0.33392915
0.031252235 0.43383613 0.032293167 0.2594584 0.08373678 0.2132834 0.031351905 0.0030873797

fc3.weight f4 [32, 64]
00000000: 35d0 05be 224c 6a3d 34bd 20bd b953 51bc
00000010: f800 f2bd 4132 b5bb 1853 833d ead4 cf3b
00000020: a639 fabd 5d3b b8bd f289 583a 35bc 8b3d
00000030: b444 d33d 93dc 17bd 43a8 55bd 99c2 fb3c
00000040: 80c3 a6bd e63f ccbd abc5 c13c 29af b6bd
00000050: 1afa 8ebd 9ce0 9f3d b108 213d 3c4b 58bd
00000060: 2f3b a23d 62b4 dd3c 7d0e d13d 5062 81bc
00000070: 476e 06be bd4a 673d cd27 a1bc 05ec 8b3b
00000080: a0ea d1bd 3aaf ab3c 70b6 bebd e2ee 01be
00000090: 34ec 363c 40a7 7e3d 5550 903c 09d3 a3bd
000000a0: 5f3c 56bd 7fd5 e6bd a0f0 dd3c 454e 73bd
000000b0: f7d5 5b3b e8b2 bf3d 2cda 10bb 0ec0 383d
000000c0: da61 b33d ceac ef3d 0d88 00be e913 e43d
000000d0: bd5b 09be fb53 d4bd 1fcd 46bd 50e0 b0bb
000000e0: 3a72 3c3d 4bd0 e13c 1299 d63d 2b12 c3bd
000000f0: 6eae e03c 5b0e 31be 7417 ffbc de21 01be
00000100: 2f43 b73b 981a f93b dae5 b1bd 9799 583d
00000110: 1a93 99bd d3f8 a8bd d6f1 953d 76f0 abbd
00000120: 5212 cd3d 68a4 bdbd 4b37 d9bd f1a0 363d
00000130: 3f26 46bd 8fdb d5bd 755c d83c 3727 b6bd
00000140: f246 a5bd 80df 55bd ad91 b7bd 8e26 08be
00000150: 7394 b4bd 2e86 41bb d543 cabd 8b6f 15bd
00000160: 7669 37bc fca4 9cbd 4b79 05be 61b9 62bd
00000170: 37f9 e53c f701 54bd ad66 08be 83ab 08bd
00000180: b0c8 843d 2068 8cbd 7218 21bc 13fc babd
00000190: 2b4c b43d a880 db3d 833a b83d 19c0 69bd
000001a0: 12fa c73b b110 43bd cb04 f7bd cc5d 9abd
000001b0: ef98 863d bda0 f2bd c381 bb3c fa60 293d
000001c0: 94fd 223d 0de1 a23d 1f89 ac3c 16ee 953d
000001d0: aa1a 9fbd 28c1 d83d 7c93 483d 5e10 2a3d
000001e0: 7bf7 b6bd 90eb 343c 0599 8c3d 4735 26be
000001f0: 9d32 80bb af9a fc3c cf8f 6bbc d7f5 e33d
00000200: c941 c63e d821 dcbe 109a 843e 1f82 b93e
00000210: 9cfe c73e eb86 b93e c8b5 da3e a567 23c0
00000220: 84f5 e33e c1c8 823e 2216 9e3e 3478 b43e
00000230: c325 a83e e259 8e3e 9685 94bf a626 11c0
00000240: 66a3 11c0 d67a 05c0 5d08 893e 8d71 e83e
00000250: 5648 e03e 1160 a73e e7a6 cb3e 6447 c5bf
00000260: a0d5 61bf 0398 ab3e c857 de3e 956a 0ac0
00000270: b85d 9a3e 80cf eabf 5bd9 803e 0cbf 33bf
00000280: 5000 dd3e 519f 7ebf 449a a43e 96d3 983e
00000290: 8369 d73e 00db b73e 04a7 f5bf 25e9 6f3e
000002a0: 2a76 c13e d6d7 df3e 702a cc3e 590f 533e
000002b0: 4808 efbf 60d4 813e 157b 77be 04f0 df3e
000002c0: f19f c63e b865 6e3e 97fd 813e 180d d83e
000002d0: 5c2c ce3e 125c bbbf 04dd bdbf f744 c5bf
000002e0: 622f b33e 0259 8bbf 7c94 b93e d5b5 69bf
000002f0: f816 dc3e 65cb 81bf 2873 993e 8fb1 cf3e
00000300: e6a1 78bd 735d 08bd 5bbd ba3d 36b1 03be
00000310: 2ed3 efbd f990 a9bd d5c2 753d 33c9 00be
00000320: 8383 00be 4c38 fabd 2bdb 9bb9 4736 693d
00000330: 17d5 353c fe29 92bc 24c1 03be e317 09be
00000340: c3f8 be3d f47a a53d 8821 01be 9b65 9c3d
00000350: a422 d3bd 7c8a 56bd 6797 5c3d 0c72 603d
00000360: 2f5f 67bc 39ef debd 1e20 84bd 9f73 c43d
00000370: 5b44 d0bd aacb 81bd 92fd a13d fd9e 5fbd
00000380: 977e 9cbd 6c07 953c c70f 883c 444a d93d
00000390: 2c61 a9bd 4813 13bd 0569 9b3d 2c28 23bd
000003a0: 3bb3 023c 84ea b9bd 2add 05be 9c85 e4bc
000003b0: a64a 14ba 7ca1 193d bac7 eb3b a081 9cbd
000003c0: 3431 983d 7203 813d 0ed8 b7bd ac4c d53d
000003d0: 85ff d43b bcf4 343d 44bb d0bd ec5b cc3a
000003e0: 436f 33bb 9df0 48bd bb34 783d 5ecc b1bd
000003f0: 6065 70bd 1211 1bbe 10ca ea3c 0089 383d
-0.13067706 0.057201512 -0.03924294 -0.012776309 -0.11816591 -0.0055296724 0.06412333 0.00634252
-0.12218027 -0.08995698 0.00082603015 0.06823007 0.103158385 -0.03707559 -0.05216242 0.03073244
-0.081427574 -0.09973125 0.023653826 -0.08920128 -0.06981297 0.07806513 0.03931493 -0.052806124
0.079214446 0.027063552 0.102078415 -0.01579395 -0.13128005 0.05646776 -0.019672299 0.004270079
-0.10249829 0.020957578 -0.09312141 -0.12688783 0.011164714 0.06217122 0.01761643 -0.07999236
-0.052303668 -0.1127119 0.027092278 -0.059400816 0.003354428 0.093602955 -0.0022102697 0.045105033
0.08758898 0.11702882 -0.12551899 0.1113661 -0.13413902 -0.103675805 -0.048535462 -0.005397834
0.046007372 0.027565142 0.104784146 -0.0952495 0.027426925 -0.17290632 -0.031139113 -0.12610576
0.0055927257 0.007602047 -0.08686419 0.05288085 -0.074987605 -0.082505845 0.07321517 -0.08395474
0.1001326 -0.09259874 -0.106062494 0.04458708 -0.048376318 -0.10442268 0.026411274 -0.088941984
-0.08070172 -0.0522151 -0.08963332 -0.13295957 -0.08817377 -0.002952944 -0.09876219 -0.03648333
-0.011194577 -0.07648656 -0.13034551 -0.055352572 0.028072936 -0.051759686 -0.13320418 -0.03336669
0.064835906 -0.06855798 -0.009832488 -0.091301106 0.088035904 0.107178986 0.08995535 -0.057067964
0.0061028088 -0.04762334 -0.12061461 -0.075374216 0.065721385 -0.11847065 0.022889024 0.04135225
0.039792612 0.07953081 0.021061478 0.07320802 -0.07768758 0.10583717 0.048968777 0.041519515
-0.08933922 0.011042491 0.06865124 -0.16231261 -0.0039122836 0.030835478 -0.014377548 0.111308746
0.38722065 -0.4299457 0.2589879 0.36232087 0.3906144 0.36235747 0.42716813 -2.553201
0.4452325 0.25543788 0.3087626 0.35247958 0.3284131 0.2780295 -1.1603267 -2.267984
-2.275598 -2.0856223 0.26764193 0.45399132 0.43805188 0.3269048 0.39775774 -1.5412412
-0.8821659 0.33514413 0.43426347 -2.1627553 0.30149627 -1.8344574 0.2516583 -0.7021339
0.431643 -0.9946185 0.32148945 0.29848927 0.42072687 0.3590927 -1.9191594 0.23428781
0.37785465 0.43719357 0.39876127 0.20611323 -1.8674402 0.25357342 -0.24168046 0.43737805
0.387939 0.2328099 0.25388786 0.4219749 0.4026822 -1.4637473 -1.4833074 -1.5411671
0.34997088 -1.0886538 0.36246097 -0.9129308 0.42986274 -1.0140196 0.2997067 0.40565154
-0.060701273 -0.033292245 0.09118148 -0.1286057 -0.11710201 -0.082796045 0.06000026 -0.12576751
-0.12550168 -0.12217769 -0.00029727197 0.05693653 0.011098168 -0.017842289 -0.12866646 -0.13388018
0.09324791 0.08080092 -0.12610447 0.07636567 -0.103093415 -0.052378163 0.053855326 0.054796264
-0.014121815 -0.10885472 -0.06451438 0.095923655 -0.10169288 -0.06337674 0.07909693 -0.054594982
-0.076413326 0.018192016 0.016609086 0.10609868 -0.08270487 -0.03590706 0.0758839 -0.039833233
0.007977302 -0.090779334 -0.13072649 -0.027895741 -0.00056568754 0.03750752 0.00719544 -0.076419115
0.0743126 0.06299485 -0.08976756 0.104150146 0.006500187 0.04417871 -0.10191968 0.001559136
-0.002737955 -0.04905759 0.060597163 -0.08681558 -0.05869043 -0.1514323 0.028660804 0.04505253

fc3.bias f4 [32]
00000000: b25b 443c d57a d43d 4623 2f3e 85e1 ae3d
00000010: f4ca 213f 2e50 823e 6b64 6d3e 5b8a 8f3f
00000020: 1416 543e af68 48bc c924 833e 311f 2e3e
00000030: f03e dfbd c92c 373e 8a72 52bd 6ca9 1b3e
00000040: ddff 3c3e 9f13 523d 59a3 5e3e d977 623e
00000050: 66cf 93bc 1415 b93d 1ef2 783d a5b1 773c
00000060: 4144 0f3e 70d1 553e b88c 9dbe 6f42 2f3e
00000070: d628 543d 358a bbbe de41 5c3e ace2 e2ba
0.0119847525 0.10374991 0.171033 0.08539108 0.63200307 0.25451797 0.23182838 1.1214098
0.20711547 -0.01223199 0.25614002 0.17004086 -0.10900676 0.17888178 -0.051378764 0.15201348
0.18456979 0.051288243 0.21742 0.22116031 -0.018043231 0.090372235 0.060777776 0.015118037
0.1399088 0.20880675 -0.30771422 0.17115186 0.051796757 -0.3662888 0.21509501 -0.0017309985

fc4.weight f4 [1, 32]
00000000: 7fdf 42be d0a4 0fbe 5a36 f53e 7d2a 89bd
00000010: 4a93 a8be 644b e73e 270e f63e f404 8f3f
00000020: 634c e63e ab1f 99bd ed5e ae3e 65c8 b83e
00000030: e7ca c1bd a6b6 ac3e 122e 2bbc d82b b33e
00000040: 60fc ae3e d435 0a3c 9c4b f83e 1658 013f
00000050: 67aa 0fbe 7f99 b33e 3717 bb3e d5ac 053c
00000060: d4ff 9f3e 77ef d93e 53df 6ebf 7344 fc3e
00000070: 9906 b13e 899a bdbd f271 db3e 56d6 4dbd
-0.1903057 -0.14027715 0.4789303 -0.06697557 -0.32924873 0.45174706 0.48057672 1.1173387
0.44980153 -0.07476743 0.34056798 0.3609039 -0.09462529 0.337331 -0.010447996 0.34994388
0.34176922 0.008435685 0.48495185 0.50525033 -0.14029847 0.35078046 0.3654115 0.008158882
0.3124987 0.4256551 -0.93309516 0.49270973 0.34575346 -0.09257991 0.4286037 -0.050253235
